data.pth (torch, 5407 bytes, 6 tensors)

l1.weight f4 [8, 57]
00000000: d9bb 213f 6654 6c3e 4ce4 bb3e 028b 88be
00000010: 0e20 d1bd d5a5 7e3f 574e c23e 2139 f03e
00000020: 7e00 283f 2b1e cb3e 343d 97be a150 a6be
00000030: 1471 54bd 9c1c 13be 2459 7b3e 5c93 c1be
00000040: 6600 05bf c9d9 813f e014 c6be 5f34 35bf
00000050: 87ee d53e 5416 50bf 208c 53bf b673 abbe
00000060: 831c 213f f2d6 75be 4e1c 01bf 096d 0a3d
00000070: 2ac7 d0bd 12a4 f33d 65cf 033f 53ad a8be
00000080: cdb5 c23e 5730 043f 1692 cabd 8f9d bdbe
00000090: 0f94 c1be a250 5b3d 40e1 093f 2939 193f
000000a0: ad8e 2d3e a92f e03e 9353 27bf 7706 86be
000000b0: 63b2 fabe 0e15 673e b3fb 1a3e 2285 8c3e
000000c0: 79de 633f f579 ac3e 5a3f 11bf a58e a1be
000000d0: 70f2 1cbf 3d40 d4be 4d53 f5be a514 a83e
000000e0: cea9 083f 8fff 383f c073 d6be 7b46 cc3e
000000f0: 5cb9 b23e 5c78 3b3f 5340 4ebe f38a 4f3e
00000100: a8be dc3e 4641 8dbe d2e9 d33e a109 2e3f
00000110: 6f87 ffbe d062 b13d eb08 13bf 5051 5dbe
00000120: 1538 ba3e 4337 223f ec4b 0fbe af0d b03e
00000130: f380 413f 0642 c33e ac95 5c3f 94b6 263f
00000140: aa33 083f 8d5b e3bc 2d92 bf3e 3cee a23e
00000150: cdd0 14bf 0fb4 f13c 4968 1ebf 0674 c6bd
00000160: 5154 13bf 7a93 123f 9a9b a93e 4958 71bd
00000170: 512a 093f 037f bfbe d50b 303e a67f 95be
00000180: de53 0e3e d871 393e 2954 abbe dbaa a63e
00000190: 398b ffbe 0043 1f3e 24f0 e9be 7138 91bc
000001a0: 8b16 cebe 7743 023f 5820 b63e 6b57 fe3e
000001b0: 72aa 0f3f 0160 053f e28f d9be 9225 033f
000001c0: fb10 6b3e cca1 cb3e 6f6b 10be 0f2f 34bc
000001d0: c909 343e 3e4f 0f3e e9e7 6d3e c060 b7be
000001e0: 965e ee3e 78c5 6b3d b948 f33e d203 f63d
000001f0: d75b d03e c346 4d3f f2a7 fe3e e682 353f
00000200: 88a7 febc d41b 383f 37e6 a63e 295a c9be
00000210: a3e2 c83e d4af 143f edce 8ebd e637 fb3e
00000220: 2f84 f33e 765d 303f 4974 df3e fd8a f43d
00000230: b613 1c3f 1930 76be 1b36 083f e4e0 11be
00000240: 4c11 81be 8b6f 2c3f dad1 15be 4eb2 b83e
00000250: de78 6d3e ffe7 1a3f 5ca5 e63e 00eb c83e
00000260: 0d06 ae3e 4be8 1f3e 2322 573e ceb4 42be
00000270: 94d3 273f 80f2 013f 02a7 b83e e540 f9ba
00000280: 18c8 593f 2312 043e fb23 03bf 1f8f 3fbe
00000290: b5ea 053f b714 123f 5653 3a3f 6cba cc3e
000002a0: d44f d23e dd83 923e 9b12 423e f288 f93e
000002b0: 9578 2cbe e1c4 083f eb2a ac3e 30f1 013f
000002c0: 0b21 1abf 601e 053f 60b4 163f 4bb7 cb3e
000002d0: b18f d33e fa45 c63e 6f1c dabe 6e24 913d
000002e0: 7ae5 d8be b98c aabe a760 efbd 124b 5b3e
000002f0: ae03 08bf be3f a93d c361 203f 995d b63e
00000300: 85f2 e93e 2671 383f d0cb 803e e4f0 ff3e
00000310: c957 933e 4cdd 0ebe 637e 14bf 32b4 45be
00000320: 7e17 e3be 9981 57be 1975 07bf 60e7 1c3f
00000330: 572d dd3e 5a6f 97be 407b 713e e940 02bf
00000340: b645 83be 00a1 f33e 5f58 103f efc0 c53e
00000350: f1ea b5be d38a abbd 3923 dbbe 1bcc 65be
00000360: 1c9c 3bbe 9f81 0f3e 34a2 2abe 1bd3 2e3f
00000370: ed0d ae3e 2859 273e 597f 533e 2c17 b5bd
00000380: f614 02bf 8617 ffba 45d7 a43e cef5 f73e
00000390: e38b f03e 8f44 0e3f 8d36 f73e e6b3 d3bd
000003a0: d045 05bf 0c3f 513f d4a0 013f 7545 f03e
000003b0: 1593 323f 387a d23e 7a3f bdbe 912f a33e
000003c0: e634 0c3f eb1d df3e 3c21 ec3e 4af3 19bd
000003d0: 4804 87be 2051 533f 2292 fdbe 0d20 21bf
000003e0: 69ee e53e 4d2e 1dbf 2224 22bf c760 93bd
000003f0: b33e 173f 339f 81be 388e 02bf 36a1 4c3f
0.6317726 0.2307907 0.36697614 -0.26668555 -0.10211192 0.9947179 0.37950394 0.46918586
0.6562575 0.39671454 -0.29538882 -0.3248339 -0.051865652 -0.14366382 0.24545723 -0.3780774
-0.5195373 1.0144588 -0.386878 -0.70783037 0.41783544 -0.8128407 -0.8263569 -0.33486718
0.6293413 -0.24007776 -0.50433815 0.03379539 -0.101942375 0.11896528 0.51488334 -0.32944736
0.38029328 0.5163626 -0.09891145 -0.3703427 -0.37808272 0.053543694 0.5385933 0.59852844
0.16948958 0.43786362 -0.653619 -0.26176807 -0.48964223 0.22566625 0.15135078 0.27445322
0.8901134 0.33686796 -0.5673729 -0.31554142 -0.6130743 -0.4145526 -0.47915116 0.3282825
0.533841 0.7226495 -0.41885185 0.39897522 0.34907043 0.7323053 -0.20141725 0.20267849
0.4311421 -0.27588862 0.41389328 0.6798344 -0.49908015 0.08661425 -0.5743548 -0.2161305
0.36370912 0.6336557 -0.13993806 0.3438544 0.75587386 0.3813631 0.8616588 0.6512234
0.53203833 -0.027753616 0.3741621 0.31822383 -0.58131105 0.029504804 -0.61877877 -0.096900985
-0.5755053 0.5725628 0.33126527 -0.058922086 0.53580195 -0.3740159 0.17192014 -0.2919895
0.1389918 0.18109834 -0.33462647 0.32552227 -0.49910906 0.15552902 -0.45691025 -0.017727109
-0.40251574 0.50884193 0.3557155 0.4967607 0.56119454 0.52099615 -0.42492586 0.512292
0.22955696 0.3977188 -0.14103483 -0.010997548 0.17581858 0.13995072 0.23232998 -0.35816002
0.46556538 0.057561368 0.4751642 0.120124474 0.40695068 0.801861 0.49737507 0.7090286
-0.031085745 0.7191746 0.32597515 -0.393266 0.3923541 0.5808079 -0.06973062 0.49066085
0.47561786 0.6889261 0.43643406 0.119405724 0.60967577 -0.24041785 0.5320756 -0.14245945
-0.2520851 0.673577 -0.14630833 0.36073536 0.23190638 0.6051025 0.45048034 0.3924179
0.3398899 0.15615956 0.21009116 -0.19014284 0.6555722 0.5076065 0.36064917 -0.0019016532
0.85070944 0.12897544 -0.51226777 -0.1870694 0.5231126 0.5706286 0.7278341 0.3998598
0.4107653 0.2861623 0.1895241 0.48737293 -0.16842873 0.53425413 0.33626494 0.5075865
-0.6020667 0.51999474 0.5886898 0.3978828 0.41320565 0.38725263 -0.42599818 0.070870265
-0.42362577 -0.33310488 -0.11688357 0.21415356 -0.53130615 0.08264111 0.6264917 0.35618284
0.4569284 0.7204765 0.25155497 0.49988472 0.28777912 -0.13951606 -0.5800535 -0.1930702
-0.4435386 -0.21045531 -0.5291305 0.6129055 0.43198654 -0.29577142 0.23582172 -0.50880295
-0.25639123 0.4758377 0.56384844 0.3862376 -0.3553081 -0.08376088 -0.4280031 -0.22441141
-0.1832127 0.1401429 -0.16663438 0.6829087 0.33995 0.16342604 0.20654048 -0.0884231
-0.50813234 -0.0019461967 0.32195488 0.48429722 0.46981725 0.5557336 0.48283806 -0.10337047
-0.5205965 0.81736827 0.5063603 0.46927992 0.6975568 0.4110887 -0.3696249 0.31872228
0.54768217 0.43577513 0.46119106 -0.037585534 -0.26370454 0.8254566 -0.49525553 -0.6293953
0.44908455 -0.61398774 -0.63336384 -0.07196193 0.59080046 -0.25316772 -0.5099826 0.7993349

l1.bias f4 [8]
00000000: 1c01 6b3f f936 913f 7601 3e3f ea33 7d3f
00000010: 0324 223f fa89 733f 85bc 1a3f 79ac 533f
0.9179857 1.1344901 0.7422098 0.9890734 0.633362 0.9513241 0.6044391 0.8268505

l2.weight f4 [8, 8]
00000000: dd14 693e fb4a e6be fdcc 503f cdf2 d7be
00000010: 68e1 7d3f 2514 afbe 86e5 383f dbab 973f
00000020: 47d8 89bf 408a 913f be13 623f 1589 843f
00000030: aa29 a8bf 40bb d3be 5a77 5d3f b53b 0c3f
00000040: e8bb b13f cb82 773f 0f70 62be 58f0 a23f
00000050: 53fe ab3f 77e2 af3f c21d 4fbf d00e 0ebe
00000060: 7798 4d3f 880e f83d 3429 703e cedd 543f
00000070: 94c3 f93e 0a2e bfbf 25ba d53e 58ea 95be
00000080: c860 6dbf 91ac a6bf 0e42 143f 1535 2cbf
00000090: 8de6 593f 6985 e43e f718 653f f3ae 213f
000000a0: d221 76bf 0eaa 943f 82e7 bd3f e51d 903f
000000b0: aba9 44bf 2066 1e3d bef7 1f3f 0923 1cbe
000000c0: e86f 3f3e e559 62be 96c6 9c3e 86b5 33bf
000000d0: 8004 dc3e aef1 8a3e 9727 9c3f 3be5 ae3f
000000e0: 6241 663e 00a1 c03b edf6 58be 040c d8bd
000000f0: f099 19bd 5dbd 94be 9a61 5bbe 48a7 9abd
0.22761865 -0.4497908 0.8156279 -0.4217743 0.9917207 -0.34195057 0.72225225 1.1849321
-1.0769128 1.1370316 0.88311374 1.0354334 -1.3137715 -0.41353798 0.8651024 0.54778606
1.388547 0.9668395 -0.2211306 1.2729597 1.3436989 1.3740987 -0.8090478 -0.13872838
0.8031077 0.121121466 0.23453218 0.8315095 0.48782027 -1.4935925 0.4174358 -0.29280353
-0.927258 -1.3021413 0.5791329 -0.67268497 0.8511742 0.44633034 0.8949122 0.63157576
-0.96145356 1.1614397 1.4836276 1.1259123 -0.7682139 0.038671613 0.624874 -0.1524774
0.18695033 -0.22104605 0.3062026 -0.7019886 0.42972183 0.27137512 1.2199582 1.3663706
0.22485879 0.0058785677 -0.21187945 -0.10549167 -0.037500322 -0.29050723 -0.21423951 -0.075514376

l2.bias f4 [8]
00000000: 1ab5 283e b582 1e3f 8599 d73e 91be 81be
00000010: 2f07 9fbe 4404 343f 93d2 923d e591 61be
0.16475335 0.61918193 0.42109314 -0.25340703 -0.31060168 0.7031901 0.0716907 -0.2202831

l3.weight f4 [7, 8]
00000000: 8e3b 163f e232 aabe 0771 d4bf 91a5 a7bf
00000010: bcd8 1b3f 4249 163e 978c 263e 2e84 5d3e
00000020: 24b5 9f3e b6ad 85bf 3453 4fbf b0bb 0ebf
00000030: bf77 1c3f 254b a0bf e525 2c3f e05f 00bc
00000040: de8a d13e af0e 2bbf 45da a23e a3ec a5bf
00000050: 93ad f6bf 3bc6 9ebf d4bd 153f 0c61 82be
00000060: 4884 adbf 5ecf 363f 2f45 08be a395 a2bf
00000070: f806 71bf e015 5e3f c0c8 83bf 7999 51be
00000080: d1df 30bc 6665 ea3e 7471 c3bf 643e a73c
00000090: 08b3 36bf 3808 c63e f9df b73e 22d1 603e
000000a0: e57e ecbd d160 4c3d d5ed c5be 82cd 843f
000000b0: 67be 83bf b570 dc3c 9e08 acbe 7fce a73e
000000c0: 5bd5 d2bf 23ef 8abf 37c3 6c3f 0204 c1be
000000d0: 1a08 bfbe ed99 60be 9f6d b1bf 1ea3 55be
0.58684623 -0.33241946 -1.6596993 -1.3097402 0.60877585 0.14676383 0.16264568 0.21632454
0.31192887 -1.0443637 -0.8098633 -0.5575514 0.6112022 -1.2522932 0.6724532 -0.007835358
0.4092626 -0.6681928 0.3180715 -1.2962841 -1.9271721 -1.2404245 0.5849278 -0.25464666
-1.3555994 0.7141017 -0.13307641 -1.2701916 -0.9415126 0.8675213 -1.0295639 -0.20468701
-0.0107955495 0.45780486 -1.5268998 0.020415492 -0.7136693 0.38678145 0.35913065 0.21954778
-0.11547641 0.04989702 -0.38658014 1.0375216 -1.0292481 0.026909212 -0.33600324 0.32774732
-1.6471361 -1.0854229 0.92485374 -0.3769837 -0.37310869 -0.21933718 -1.3861579 -0.20863006

l3.bias f4 [7]
00000000: 5842 0cbf 8ca3 09be 82cd b43e de02 81bc
00000010: ff65 abbe b425 d5bd d03e acbc
-0.5478873 -0.13441294 0.3531304 -0.015748437 -0.33476254 -0.10407582 -0.021026045
